data/fc1.bias.npy (npy, 8320 bytes, 1 tensors)

array f4 [2048]
00000000: 01d1 413c 09f6 6c3b 2141 a7bc c359 86bc
00000010: 30bc 52bc 5b1b 72bc 04ee a53b c09d 0c3d
00000020: ee24 9bbc 8ac5 aabc 67f1 f63c 1d90 273d
00000030: b923 8bbc 453a 003d 153f 4fbd fc25 8d3c
00000040: fbe1 e33b c03e 9c3c 55a9 bd3c e0e1 3ebc
00000050: 7c0c 073d c632 ef3c ac20 a6bc 31be 7b3c
00000060: 07c3 afbc cfe2 d5bb c530 813c c180 af39
00000070: c172 dabc 46d8 94bb 19bd 81bc 1bd2 90bc
00000080: 2d69 2abd 1b53 be3c 2675 0cbd 19c9 76bc
00000090: f8e6 cb3c d3c9 183d 271c 733c 2824 3e3c
000000a0: 0632 b13b 11e8 e13c a220 c73c 7532 573b
000000b0: 6011 01bd 1ae5 24bc f0ef 313c 6ee8 b03c
000000c0: 75b4 3b3d 1d1c 0dba 41bb a83a edb8 83bb
000000d0: fb47 293c d5b6 e03c 5259 cf3c 9761 143d
000000e0: a367 68bc 3daa f2bc 8662 d6bc 5a1f 15bc
000000f0: b641 4cbb d61c debc 800a 44bc 3efd a73c
00000100: 3351 10bd d28f 60bb d1c2 b0bc 1c52 d13c
00000110: e7a8 d93c 7939 89bc 3a02 ed3c adf2 833b
00000120: 898f 9fbc 426c 31b8 ce65 dbbb 801c 833c
00000130: 28fe cd3b ef09 433d 8fad c0bc 38b5 1abc
00000140: 2370 163c f5d8 87bc 8b0d e03c a371 4bbc
00000150: d3df 563c bf1e cabc 80d0 8bbc c51c 7cbb
00000160: 13d4 3cbc 95b7 08bd 6bb0 01bd cc31 5d3c
00000170: 3e6f ce3c 3e07 17bd e9ba de3c de5d f33c
00000180: 5c25 e43c a6a5 46bc 7bf4 1cbd ae9c f83c
00000190: b933 2c3c 0145 1939 239f 053c 78eb 8bbc
000001a0: 088f a4bc b2cf ca3b 2db6 0a3c f48b 01bd
000001b0: 5e4a f43b 0ce9 1a3c 449b 08bb e701 e9b9
000001c0: 6f00 063c da36 02bd 096a 113d 58c5 063c
000001d0: 1f3c 6fbb 6234 6f3a adce ee3c dd55 f4bc
000001e0: 5ff0 debc 2962 943c f63b 87bc b7ad 543b
000001f0: 6516 873c 8003 703c 4e99 84bc d9d4 d7bb
00000200: 3330 d73c 6efa ea3c 48ca 04bd 6b8c cf3c
00000210: cdcd 88bd 185e 163d 65e3 91bc f8bf 93bb
00000220: 39f0 3bbc 8e0f 083c 66e0 b0bc 99d3 d13b
00000230: 4b10 303d ed0f afbb 83bf a43b 0490 563c
00000240: 26b1 d3bc bb0e c13c 9c7f 65bd d118 093d
00000250: a57b b63c 822a 09bc 0964 c93c 2393 ebbb
00000260: 5cce 0a3d 318c 873a 4c54 bc3b 0c50 98bc
00000270: bbb8 123c 7cf1 58bc b8b3 d03a 769b 403c
00000280: 9523 a43c 150d 063d 4a14 e43c d3b7 ea3c
00000290: dddf 023d ae96 c3bc f8e5 343c eadd 51bc
000002a0: 077f 2abd fc05 013d 9436 37bc 8430 d1bb
000002b0: 293c 0ebb 0557 adbb 4ceb c5bc c32c 0fbd
000002c0: 04c4 0a3d f211 163d 85d8 83bc d653 1abc
000002d0: 624b 0d3c f0d4 e33c 16ef 233b 2e48 e7bb
000002e0: a4ef 213b a3b8 2ebc 381c fd3b db74 c4ba
000002f0: e576 313d 4636 d63c ce2b 863c 8e96 bdbb
00000300: 74d4 6dbc c593 0cbd da56 873c 44ab 083d
00000310: 0e07 bb3c 518f 7bbc 1ed1 af3c 61a1 ac3b
00000320: a45f 6ebc d3f2 0fbc b79d 0e3d 8587 073c
00000330: ada7 e6bb 9cde a9bc def7 2b3c 5270 fabc
00000340: 212d a63c b62e 173b 4d9e 48bc 5e50 b6bc
00000350: 2a36 2c3a f860 913c 83d1 de3a 59f0 82bc
00000360: e62b 4d3d d269 c8bb 928e 083d 1d59 813b
00000370: 50ad ca3c 0be7 b8bc 30a2 5fbc c8eb e93c
00000380: f817 943c 5dc7 2ebc cecf 953c 8910 09bd
00000390: eddb 5abc 1e53 c6bc b607 53bc 26ff b6bc
000003a0: 4772 503d 9b18 f93c e09f 24bb 5abe b33c
000003b0: 0168 da3c 7354 6fba 24fe cd3c e8ca e53c
000003c0: 50ba 8cb9 c7ba 17bc 53f1 303b 6c7a 8fbc
000003d0: aeed a3bb 2529 80bc 248a 503c 34fd 45bb
000003e0: 0903 2bbc 58dc edbc 9233 e8bc db83 0dbd
000003f0: 6774 8cbc 5dd0 e7bc 0f05 81bc 7f4f e83c
0.011829616 0.003615739 -0.020416798 -0.016400224 -0.01286225 -0.01477703 0.005063774 0.03433013
-0.018938508 -0.020846147 0.030144406 0.04090892 -0.016984807 0.03130557 -0.05059727 0.017230026
0.006954429 0.01907289 0.023152033 -0.0116505325 0.03297089 0.029199015 -0.020279251 0.015365169
-0.021455301 -0.006527282 0.015770325 0.0003347453 -0.026666047 -0.0045423834 -0.01583724 -0.017678311
-0.04160421 0.023232987 -0.03429141 -0.015062594 0.024890408 0.03730185 0.014838255 0.0116053
0.0054075746 0.027576478 0.024307553 0.0032836471 -0.03151071 -0.010064388 0.010860428 0.021595206
0.045826394 -0.00053829123 0.0012873189 -0.0040198476 0.010332103 0.027430931 0.025311146 0.03622588
-0.014184865 -0.029622192 -0.026170027 -0.009101713 -0.0031167096 -0.02711336 -0.011965394 0.020506497
-0.035233688 -0.003426541 -0.02157727 0.025551848 0.026569797 -0.016751038 0.028931726 0.004026732
-0.019477623 -4.230091e-05 -0.0066954857 0.0160048 0.0062864013 0.047616895 -0.02352026 -0.00944262
0.009182009 -0.016582945 0.027350208 -0.01241723 0.013114887 -0.024672864 -0.017067194 -0.0038469296
-0.011525172 -0.033378202 -0.031662386 0.013500642 0.025199529 -0.03687214 0.027188735 0.029707845
0.027849846 -0.012124455 -0.038319092 0.030348148 0.0105103785 0.00014616923 0.008155617 -0.017080054
-0.020087734 0.00618931 0.008466286 -0.03162761 0.0074551543 0.009454977 -0.0020844499 -0.0004444264
0.008178814 -0.03179059 0.035501514 0.008225761 -0.003650434 0.0009124932 0.029151285 -0.029826099
-0.027214227 0.018113213 -0.016508084 0.0032452175 0.01649017 0.014649272 -0.016186383 -0.0065866527
0.0262681 0.028683867 -0.032419473 0.025335511 -0.066798784 0.03671083 -0.017808625 -0.0045089684
-0.011470848 0.00830449 -0.021591377 0.0064033982 0.04298429 -0.0053424747 0.005027713 0.013095859
-0.025841307 0.023566594 -0.0560299 0.033470932 0.022275755 -0.008371951 0.024583833 -0.007189171
0.033888206 0.0010341463 0.0057473537 -0.018592857 0.008955176 -0.013241168 0.0015922701 0.011755815
0.020036498 0.03272732 0.027841706 0.028652107 0.031951774 -0.02387556 0.011041157 -0.012809256
-0.04162505 0.031499848 -0.011182446 -0.0063839573 -0.0021703339 -0.0052899146 -0.02416005 -0.034954797
0.03387834 0.036638208 -0.016094455 -0.009419402 0.00862393 0.027811497 0.0025014332 -0.007058165
0.0024709487 -0.010664138 0.007724311 -0.0014988439 0.043326277 0.026148926 0.01637831 -0.00578577
-0.014515985 -0.03432061 0.016520906 0.033366457 0.022830512 -0.0153539935 0.02146202 0.0052682613
-0.01454917 -0.008785921 0.034818377 0.0082720565 -0.0070390315 -0.020736031 0.010496108 -0.030571137
0.020285191 0.0023068613 -0.012244773 -0.022255119 0.00065693504 0.017746434 0.0016999695 -0.015983747
0.050090693 -0.0061161304 0.03333909 0.0039473907 0.024740845 -0.022571107 -0.013649508 0.028554812
0.018077835 -0.010667649 0.018287566 -0.033463035 -0.013358098 -0.024209555 -0.012880256 -0.022338461
0.050890233 0.03040724 -0.0025119707 0.021941353 0.026660921 -0.00091297104 0.025145598 0.028050855
-0.00026841694 -0.00926084 0.002699931 -0.01751443 -0.005002699 -0.01564462 0.012728248 -0.0030210735
-0.010437735 -0.029035732 -0.028344903 -0.034549575 -0.017145349 -0.028297598 -0.015749482 0.02835822
