data/fc2.bias.npy (npy, 2176 bytes, 1 tensors)

array f4 [512]
00000000: 3ad4 68bc 0c53 5f3c 2514 adbc 3025 203d
00000010: db74 3e3d f059 553c 370b 183c 5141 ee3c
00000020: 6b1a 24bc 288f a3bb ebb4 623c 0f76 89bc
00000030: 2b6a 053d eab5 253b cc9d 8cbc 7c40 133d
00000040: 9182 aebc 74ef c83a 6674 a43c 9280 6dbb
00000050: 6fc6 cf3c eb7c 023d 809c 8b3c 8efe b3bc
00000060: 599b 4d3d 9860 90bb 7d27 3439 421f d73a
00000070: 813d 5f3b ebde 613b e468 8bbb c9c2 b73b
00000080: 9ecf 633c 4eb1 0f3d a0df 763c 0bbe f93b
00000090: c333 a43c 8ac2 f53b 9a40 933c 9c6c 3d3c
000000a0: 06b5 3f3d 8ac1 843c 07bd 853a 545b 64bc
000000b0: 7a7b fc3c 0a12 633b 48bc 023d b52d 7f3c
000000c0: 8f60 d43c a72c fdbc 576f 2cbc cbfe c13c
000000d0: 32d6 c0bb 2463 bd3c 069c 6d3d fb67 b83c
000000e0: 7e8b eb3a a289 e83b b302 293c a266 07bc
000000f0: 5e37 b9bb 5c22 a13c 37a9 073d 5bec c43c
00000100: 1353 a03c f995 953c c2b5 c33a a771 8c3b
00000110: e1d3 8b3a df1c b0bc 832b 6f3c 2553 313b
00000120: 203c 953a ed3f 553d 12e2 0b3d ea87 75bc
00000130: da93 5cbb e420 883b c296 e83c 6dde 81bb
00000140: feff 93bc e52f 22bc a6c1 a7bc af2c fb3c
00000150: 36a8 7bbb 28b6 1e3d aee0 693c 9708 473d
00000160: 0890 d8ba 178a 97bc a29c 8dba 370f 0f3d
00000170: 487a 593d a6a8 6f3b 3248 f3bb 6ba5 90bc
00000180: 426c 6a3c 13de d6bb 6357 8d3c 2674 ff3b
00000190: a24c a33c 2062 24bc a901 4cbc e7d4 f93c
000001a0: 1a56 7b3b af91 f13c 495c ebba 9035 06bb
000001b0: ef65 a13c edb7 9d3b a28d c8bc 71f7 87bc
000001c0: 2d8d 573d 1ce4 b6bc c2dd 903b 6acc 0d3d
000001d0: 745c 5f3a 8726 833c 3876 a23c 4963 103d
000001e0: 7018 803c 4e57 5c3c 058e 123c e344 873c
000001f0: f654 a4bc db74 6a3c 9829 bf3c 7be5 94b9
00000200: a9d0 bfbc 9e0c 113c 52ac 53bc 29cb 15bc
00000210: 427a 25bc 5c2e d73c 0c60 d63c 3b2f 0d3d
00000220: 9fa3 e33c ab36 c8bb 2d83 cd3c 72a9 363d
00000230: e1a0 e43c 2f7a 80bc 0c2a 293d ca81 9f3c
00000240: 1a51 c1bc 9ceb 5f3c b274 3cbc 5ff0 303d
00000250: 993c 973c f718 5d3c 5581 eb3c 5f14 56bc
00000260: 15f6 003d 8549 143c efaf 4c3c 9c33 8c3c
00000270: 0164 b33c 765d 133d 7829 cc3b 5d29 783c
00000280: 4f79 eebb 5152 cc38 c360 a33c ad4e 963c
00000290: 6670 d63c eeab bd3c 2290 b83c e984 173d
000002a0: d436 ff3c 5676 023d 7e36 373b 5ec4 b03b
000002b0: 850f 933c 554a 0a3d d66b 213d 0956 1b3d
000002c0: a320 f63c 949d 603c 5cd4 973c 5939 323c
000002d0: b726 0b3d c648 933b 6609 923c c686 913c
000002e0: e250 8dbb 05fc f93c bad3 433c b7c3 b33c
000002f0: 7d1b 98bc 0573 cb3c c2e2 2f3d 6407 a83c
00000300: a165 533c c2f4 143d 75de 2bbb b511 56bc
00000310: 8d28 a93c 3b7a f23c aa51 0c3d 4eb8 e03c
00000320: 76ea 913b df2e 6dbb c027 993c ece1 c43c
00000330: 440e bb3c 0b4d fb3c 96c8 663c c423 9ebc
00000340: 1e5a 2f3d 7dd2 3db9 87b6 823c 356a fb3a
00000350: bd57 a43c 9368 aabb 1e43 a13c 50c5 a8bb
00000360: 3a4f cc3b 7c65 663b 4901 aa3c ab0b 2e3d
00000370: df20 d5bc a158 d93c c56e 133c 0bea 7f3b
00000380: dfb0 433b f974 d63b 3260 d63b a2af ae3b
00000390: cedf 723b 5ec1 e33c 7849 83bb f657 bc3c
000003a0: 46d6 003d cef5 fbbb 9853 d83c 7ead 69ba
000003b0: 260e 9e3c a1aa 70bc 72b8 49bc 1da6 e03b
000003c0: a43b 493c 32d0 333b 48d4 ee3b 17ae 143c
000003d0: 96de 97bc 8612 173d 8e49 253d edee f93c
000003e0: 4b11 983c 156e b53c 159d d9bb 664a c8bc
000003f0: 6193 03bb b7c6 9b3c 95e2 cb3b a782 5f3a
-0.014210755 0.01363064 -0.02112777 0.039097965 0.04649816 0.013021931 0.009280018 0.02908388
-0.010016064 -0.004991431 0.0138370795 -0.016779928 0.032571953 0.0025285431 -0.017165087 0.03595017
-0.021302493 0.0015330152 0.020075034 -0.0036239964 0.025363175 0.031857412 0.017042398 -0.021971967
0.05019698 -0.004406046 0.00017180848 0.0016412514 0.0034063759 0.0034465145 -0.0042544473 0.005607937
0.01390448 0.0350812 0.015067965 0.007621532 0.020044213 0.0074999975 0.01797514 0.011561539
0.046803497 0.016205568 0.0010203429 -0.01393779 0.030820597 0.0034648203 0.03191784 0.015574862
0.025924949 -0.030905081 -0.010524592 0.023681065 -0.005884909 0.023118563 0.058010124 0.02251052
0.0017970649 0.0070964852 0.010315585 -0.008264216 -0.0056523522 0.019669704 0.03312036 0.024038484
0.019570863 0.01825999 0.0014931487 0.0042860094 0.0010668003 -0.021498142 0.014597776 0.0027057615
0.0011385716 0.052062918 0.034151144 -0.014986018 -0.0033657462 0.0041543115 0.0283922 -0.003963283
-0.018066403 -0.009899114 -0.020478081 0.030660955 -0.0038399822 0.038747936 0.014274759 0.048592176
-0.0016522417 -0.018498464 -0.0010804127 0.03492662 0.053095132 0.0036569028 -0.007424378 -0.017657002
0.014308037 -0.006557235 0.017253583 0.0077958284 0.019934002 -0.01003316 -0.012451568 0.030497028
0.003835088 0.029488413 -0.001795658 -0.0020478703 0.019701926 0.0048131854 -0.024481598 -0.016597481
0.05262487 -0.022325568 0.004420967 0.034618773 0.00085205515 0.016009582 0.019831762 0.035250936
0.015636653 0.013448549 0.008944993 0.01651234 -0.020060044 0.014310087 0.023335263 -0.00028399736
-0.023414927 0.008853106 -0.012919502 -0.009142675 -0.010099949 0.026267223 0.026168846 0.03446887
0.027787982 -0.0061100326 0.025086964 0.04459519 0.027908744 -0.015683262 0.041299865 0.019471068
-0.023598243 0.0136670135 -0.011502432 0.043197986 0.018461512 0.013494722 0.028748194 -0.01306638
0.031484682 0.009050732 0.012493118 0.017114453 0.021898272 0.035977803 0.0062305294 0.0151465805
-0.0072776447 9.742811e-05 0.0199436 0.018348062 0.026176643 0.023153272 0.022529665 0.036991987
0.031154074 0.031851135 0.0027956064 0.0053945025 0.017951736 0.033762295 0.03940948 0.037923846
0.03004486 0.013709445 0.018533878 0.010877931 0.03397247 0.0044947593 0.017826747 0.01776446
-0.0043126205 0.03051568 0.011952335 0.02194391 -0.018567795 0.024835119 0.042940862 0.020511337
0.012902648 0.03636623 -0.0026225124 -0.013065745 0.020649219 0.0295993 0.03425757 0.027431633
0.0044529987 -0.0036191267 0.018695712 0.02403351 0.02283395 0.030676385 0.014085909 -0.019304164
0.04281055 -0.00018102858 0.015956176 0.0019181432 0.020061368 -0.0052004545 0.019685324 -0.0051504746
0.0062350305 0.0035155704 0.020752566 0.042491596 -0.02601665 0.02653152 0.0089985775 0.0039049413
0.0029860062 0.006544706 0.006542229 0.0053309957 0.0037059668 0.027802166 -0.004006561 0.022991162
0.031454347 -0.0076892143 0.026407048 -0.0008914097 0.019293856 -0.014689119 -0.012312042 0.0068557397
0.012282286 0.0027437326 0.0072884895 0.009074709 -0.018538754 0.0368829 0.04035335 0.030509437
0.018562933 0.022147218 -0.00664104 -0.024449538 -0.0020076858 0.019015653 0.006222079 0.00085262436
