data/fc3.bias.npy (npy, 2176 bytes, 1 tensors)

array f4 [512]
0	0xbc319635	-0.010839035
1	0x3d2b069f	0.04175436
2	0x3d79d399	0.06099281
3	0x3be3e3eb	0.00695466
4	0x3b9eb4b3	0.0048433184
5	0xbcd2a085	-0.025711307
6	0xbc766f8a	-0.015041241
7	0x3ab36e73	0.0013689533
8	0xbce387ab	-0.027774652
9	0xbba88a9a	-0.0051434757
10	0x3d0eda28	0.03487602
11	0x3ac11aa7	0.0014732674
12	0x3b5920e7	0.0033131184
13	0x3c549a61	0.01297626
14	0xbb233d1d	-0.0024908253
15	0xbd6442b2	-0.055727668
16	0x3d3e937b	0.046527367
17	0x3d699769	0.05702916
18	0xbd0b1650	-0.033956826
19	0x3c07857d	0.008271572
20	0xbc9ae066	-0.01890583
21	0x3d20b600	0.03923607
22	0x3b58dfb6	0.0033092326
23	0x3c936fb3	0.017997598
24	0xbd125b89	-0.035731826
25	0xbd0ce3a9	-0.0343968
26	0x3d6f6370	0.05844444
27	0x3c916129	0.017746525
28	0x3d882515	0.06647698
29	0x3c8662bc	0.016404502
30	0xbcd2a0e1	-0.025711479
31	0x3ceec0cf	0.029144673
32	0x3d64ef57	0.055892315
33	0x3c66bf8b	0.014083753
34	0x3d1826a0	0.03714621
35	0x3d4ca282	0.049959667
36	0xbc501e9c	-0.01270261
37	0x3dcb320c	0.09921655
38	0x37f5961a	2.9276172e-05
39	0x3c5df7c1	0.013547839
40	0x3d4f11d3	0.050554108
41	0x3cece25d	0.028916532
42	0x3d55ca70	0.052195013
43	0x3bc9574a	0.006144439
44	0x3c7438e7	0.014906145
45	0x3d13c368	0.036075026
46	0xbb6ee710	-0.0036453642
47	0x3d7c535c	0.061602935
48	0x3cc60ab8	0.024175033
49	0xbd22d676	-0.039755307
50	0x3cbaf8af	0.02282366
51	0xbbf1d728	-0.007380385
52	0x3da3d983	0.080004714
53	0x3c8b1a88	0.016980425
54	0xbd461dd3	-0.048368286
55	0x3cf7cca2	0.030248944
56	0xbd3997f6	-0.045310937
57	0xbc2fbc26	-0.01072601
58	0xbd1214d2	-0.035664387
59	0x3c15234b	0.009102653
60	0x3d47f875	0.04882093
61	0xbcfb71bb	-0.03069388
62	0x3cf051b2	0.02933583
63	0xbb60d75e	-0.0034308056
64	0x3d509638	0.05092451
65	0x3d2bb72d	0.041922737
66	0xbd197a85	-0.03747036
67	0x3b634825	0.0034680453
68	0xbcc2ff90	-0.023803502
69	0x3d906596	0.07050626
70	0x3d34694b	0.044045728
71	0xbcc7feee	-0.024413552
72	0x3c6c84ff	0.014436006
73	0xbcf2f4b6	-0.029657703
74	0x3c1e8332	0.009674834
75	0x3d54aa0a	0.051919974
76	0xbd0749da	-0.033029415
77	0x3d5b8c6c	0.053600714
78	0x3d474aeb	0.04865543
79	0x3d21c678	0.039495915
80	0x3b485425	0.0030567732
81	0xbc8f7ab9	-0.017514573
82	0x3ca9699a	0.020680238
83	0xbc97aca2	-0.018514935
84	0xbd1b16b9	-0.037863467
85	0xbd367bb8	-0.04455158
86	0xbd0170f3	-0.031601857
87	0x3d14124a	0.036150254
88	0x3d8bdde0	0.06829429
89	0x3caaea05	0.020863542
90	0x3c378f82	0.0112036485
91	0x3d09fa08	0.033685714
92	0x3d2288c2	0.039681204
93	0x3c9a4625	0.018832276
94	0x3cdd24ba	0.026995052
95	0x3b62413e	0.003452375
96	0x3d6fed9f	0.058576223
97	0x3b819cf0	0.003955476
98	0xbd52ee65	-0.051496882
99	0xbca07426	-0.019586634
100	0x3d84578b	0.0646201
101	0x3bb1b394	0.0054230187
102	0x3ca136dd	0.019679481
103	0xbca83812	-0.020534549
104	0x3d1837db	0.037162643
105	0x3d3f9060	0.046768546
106	0x3cd01327	0.025399758
107	0x3c9dc666	0.019259643
108	0x3c9f4a7b	0.019444695
109	0x3d2e7cc1	0.042599443
110	0x3d38274c	0.04495935
111	0x3cf350e6	0.029701661
112	0x3d2f5088	0.04280141
113	0xbcadcc6d	-0.021215642
114	0x3cb5b3ab	0.022180399
115	0xbd32d050	-0.043655694
116	0x3d9df64c	0.07712993
117	0x3d81fbff	0.063468926
118	0x3d14d501	0.03633595
119	0x3d1f678d	0.038917113
120	0x3c54ffac	0.01300041
121	0xbc1f680d	-0.0097293975
122	0x3d70ab4c	0.05875711
123	0x3c861bd3	0.01637069
124	0x3c3d71a5	0.0115627395
125	0x3ce039bb	0.027371278
126	0xbc278feb	-0.010227184
127	0x3d4d8c08	0.050182372
128	0x3cfd6655	0.030932585
129	0xbd1c66ae	-0.03818386
130	0x3d2b4bdd	0.041820396
131	0x3d8bfc38	0.06835216
132	0x3b9ccde6	0.004785287
133	0x3c6311f1	0.013859258
134	0xbc95d7f8	-0.018291458
135	0x3cecd4aa	0.02891
136	0x3daa1258	0.0830428
137	0x3c71475e	0.014726488
138	0x3c181b8d	0.009283912
139	0x3cac5c25	0.021040032
140	0x3dafd439	0.085854
141	0xbcc0a669	-0.02351685
142	0x3d191dbb	0.03738187
143	0xbd087af3	-0.03332038
144	0x3c50c344	0.012741867
145	0xbd289f83	-0.041167747
146	0x3c803777	0.015651448
147	0xbd06d08b	-0.032913726
148	0x3cf61d78	0.030043349
149	0x3d94a06c	0.072571605
150	0x3ceb07d0	0.028690249
151	0xbc6fcdcc	-0.014636468
152	0xbcb46e78	-0.022025332
153	0xbcd15408	-0.025552765
154	0xbc1e2d75	-0.0096543925
155	0x3d53c0b7	0.05169746
156	0x3d2e1744	0.042502657
157	0x3c87e7df	0.016590057
158	0xbbcd9e8c	-0.006275004
159	0x3d4fc1d1	0.050721947
160	0x3cc17c4f	0.023618845
161	0xbcf1245a	-0.02943628
162	0x3d174e31	0.036939804
163	0x3d46b91c	0.048516378
164	0xbcf9c56b	-0.030489644
165	0x3b9f7910	0.0048667267
166	0x3acdb800	0.0015695095
167	0x3d001e61	0.03127897
168	0x3cc55076	0.024086218
169	0x3bf9befa	0.007621643
170	0x3d7b56ca	0.061362065
171	0xbaa694b4	-0.0012709112
172	0xbd26cec7	-0.040724542
173	0x3c42c8b6	0.0118886735
174	0x3c705061	0.014667601
175	0x3ca0680f	0.019580869
176	0x3cd85ec1	0.02641237
177	0x3d0d1a4b	0.034448903
178	0xbd236f23	-0.03990091
179	0x3cb9f99e	0.022702035
180	0x3d7649a3	0.06012882
181	0xbc8d1c07	-0.017225279
182	0xbbcbfe6a	-0.006225397
183	0x3ca31ec4	0.019912131
184	0xbc8b002e	-0.01696786
185	0xbcd221fc	-0.02565097
186	0x3d3410f4	0.04396148
187	0x3bfb2224	0.007663982
188	0x3ac338db	0.0014894264
189	0x3c2976bb	0.010343249
190	0x3c872203	0.01649571
191	0xbca56de5	-0.020194003
192	0xbcf3d0e7	-0.029762698
193	0x3cee4406	0.02908517
194	0x3d471726	0.04860606
195	0x3c1f19eb	0.009710769
196	0x3ca04c8f	0.019567756
197	0x3bfa97e6	0.0076475022
198	0x3d2f77d4	0.042838886
199	0x3cab19b7	0.020886285
200	0x3c8180fb	0.015808573
201	0xbc551d8f	-0.013007536
202	0xbb18c21d	-0.002330906
203	0x3cf20643	0.029544001
204	0x3bd5984d	0.0065184
205	0xbbdb48e5	-0.0066920393
206	0xbd281691	-0.041037146
207	0x3d802091	0.062562115
208	0x3c8d2c2e	0.01723298
209	0xbc9f9a76	-0.019482832
210	0x3d0596d2	0.032614537
211	0xbb3ce867	-0.0028825046
212	0x3cd567a5	0.026050398
213	0x3c78c501	0.015183688
214	0xbcc92695	-0.02455453
215	0x3c80d481	0.01572633
216	0xbd0a877a	-0.033820607
217	0x3cf4353b	0.029810539
218	0x3c490b76	0.012270799
219	0x3d6e81e4	0.058229342
220	0xbccb6cc6	-0.02483214
221	0x3cec4e43	0.028845912
222	0x3b4ad038	0.0030946862
223	0xbcc557cf	-0.024089722
224	0x3d06c5ee	0.032903604
225	0xbcb56dc1	-0.022147061
226	0x3c9a50cb	0.018837353
227	0x3d89672f	0.06709134
228	0x3d4ddf6d	0.050261904
229	0xbcaf1721	-0.021373333
230	0xbd286127	-0.041108277
231	0x3d65cee4	0.05610551
232	0x3d86babd	0.06578586
233	0xbd1c4313	-0.038149904
234	0x3b8c4960	0.004281208
235	0x3d73ca55	0.05951913
236	0x3bd9320a	0.0066282796
237	0x3c74de03	0.01494551
238	0xbcd4605c	-0.025924854
239	0xbc04cded	-0.008105737
240	0x3d0bef7f	0.03416395
241	0x3cf0bb0e	0.02938607
242	0x3d2d520c	0.042314574
243	0xbd15a323	-0.036532532
244	0x3c05571b	0.008138443
245	0xbc60ae76	-0.01371347
246	0xbca05f15	-0.019576589
247	0x3d24c188	0.04022363
248	0x3ca34921	0.019932332
249	0xbcf88be2	-0.030340139
250	0xbd02e8d6	-0.03196033
251	0x3d3ab99e	0.045587175
252	0x3b854a43	0.0040676906
253	0xbc9cc83e	-0.019138452
254	0x3cb6d0cf	0.022316365
255	0x3d82a542	0.06379177
