data/fc4.weight.npy (npy, 20608 bytes, 1 tensors)

array (column-major) f4 [512, 10]
0.026717378 0.24797331 -0.07069008 0.19080883 -0.07931634 -0.18631604 -0.011045314 0.028846785
0.09241384 0.056730233 0.013826053 0.02732063 -0.103273556 0.0044075204 0.08922213 0.063656054
0.20320697 -0.109243274 0.031663306 0.06364079 -0.19180381 -0.13383718 -0.13762856 0.036619715
-0.041738033 -0.05760307 -0.061641358 0.039747145 0.055504557 -0.01601956 -0.0083114095 0.06122166
-0.04865682 0.22476615 -0.062473338 0.09866169 -0.107604995 -0.051597677 0.10993606 -0.0011648629
-0.0015872862 -0.02684974 0.15548602 0.3006757 0.092906885 0.12686972 -0.07373706 -0.049946494
-0.08325194 0.011418696 -0.058438122 -0.013164985 -0.20116347 -0.023952411 0.06065889 -0.20682505
-0.037379555 0.20962553 0.010656869 -0.27537042 0.001010588 -0.11769527 0.07636008 -0.020435805
0.17942353 0.04175423 0.030846192 -0.13772562 0.017161584 -0.20106108 -0.08587703 -0.013688969
-0.032707695 0.2462536 0.015595267 -0.098869376 0.003148886 -0.04710263 0.14928004 -0.036660336
0.1392548 0.02309122 -0.16561247 -0.028682282 0.03732097 -0.046911895 0.025658937 -0.1334469
-0.16758719 0.015855165 0.01658765 -0.15801553 0.12033668 -0.013845048 0.13640068 0.3171608
-0.077923596 0.03520292 -0.04473462 0.013973893 -0.13854621 -0.12587337 0.027158692 0.041659635
-0.09136376 -0.033719473 0.089419246 0.018874623 -0.11679512 0.10556212 -0.09514939 0.1378372
0.05478623 0.109674156 0.031696465 -0.0006054284 -0.26164654 -0.122410156 -0.05832863 -0.111190125
-0.1264154 0.078596026 -0.1202654 -0.21148804 -0.01422281 -0.007822923 -0.012413884 -0.1823292
0.08718368 0.025586924 0.17367706 -0.14924613 -0.1427487 -0.009480887 -0.09984418 0.2222457
-0.19002967 -0.07234277 0.17534354 0.044944905 -0.14398596 -0.0071685584 -0.10291455 -0.01278316
-0.19570622 0.12644385 0.00045172346 -0.022641284 0.13845381 0.01616935 -0.031584315 -0.018873569
-0.08347818 0.052566305 0.037539236 -0.09125248 -0.24159488 -0.26694438 0.010340082 0.052690096
0.18008022 -0.0095706675 -0.16489106 0.06877431 -0.020858854 0.18070765 0.0098854 -0.17192404
-0.013259564 0.18348563 -0.049564194 -0.14615385 -0.005254353 0.15505481 -0.05258243 0.10248888
-0.07007835 -0.0294943 0.052305657 -0.17940673 -0.14348786 0.20695 -0.008449603 0.05457594
-0.06594012 0.08918174 -0.054535486 -0.055739246 -0.008177764 -0.11581617 -0.038523864 -0.10385577
0.050090436 0.14032795 0.046254415 -0.031794477 0.1481818 -0.0072183292 0.22163321 -0.037778534
-0.04868798 0.0014295697 0.0326673 0.080488876 -0.00025761538 -0.0950841 0.011412108 0.07625787
-0.080049425 -0.06000613 0.17575386 0.010075539 -0.052328516 0.04554297 0.00961329 -0.15798534
0.055137817 -0.065296225 0.07610087 0.21802163 0.06683311 0.17594163 0.0024106419 0.054714087
0.18988748 -0.0755841 -0.08033912 -0.07518405 0.16938753 -0.05394464 -0.02686386 0.16659904
-0.11008743 -0.049379226 -0.06516798 -0.108586006 0.15107329 -0.03473401 -0.021090113 0.13402931
0.051804747 -0.17705931 0.19567972 0.055651892 -0.05128241 0.07294935 0.17878261 0.12351235
-0.0065634614 -0.034453616 -0.012676529 -0.14605999 0.13123913 -0.059780534 -0.05572192 -0.18313143
00000000: 67de da3c b7ec 7d3e f6c5 90bd 6463 433e
00000010: 9b70 a2bd a2c9 3ebe 68f7 34bc 1850 ec3c
00000020: 7843 bd3d f65d 683d ab86 623c 84cf df3c
00000030: 1681 d3bd f66c 903b 18ba b63d 1b5e 823d
00000040: 7d15 503e f0ba dfbd 62b1 013d 1a56 823d
00000050: 3868 44be 9d0c 09be 80ee 0cbe 8efe 153d
00000060: 80f5 2abd 32f1 6bbd a67b 7cbd e7cd 223d
00000070: bf58 633d 743b 83bc 942c 08bc 90c3 7a3d
00000080: 604c 47bd 1929 663e 0be4 7fbd 240f ca3d
00000090: 0260 dcbd 1658 53bd 2826 e13d 50ae 98ba
000000a0: 7d0c d0ba fcf3 dbbc ba37 1f3e 2af2 993e
000000b0: f745 be3d 23ea 013e 7503 97bd b294 4cbd
000000c0: fe7f aabd 7b15 3b3c d05c 6fbd f3b1 57bc
000000d0: ccfd 4dbe d937 c4bc 7575 783d f2c9 53be
000000e0: 4e1b 19bd 13a8 563e 269a 2e3c 5afd 8cbe
000000f0: b575 843a 380a f1bd ac62 9c3d fd68 a7bc
00000100: cdba 373e 7c06 2b3d 27b1 fc3c f207 0dbe
00000110: 7396 8c3c f5e2 4dbe 4ce0 afbd b347 60bc
00000120: 81f8 05bd e729 7c3e 4a83 7f3c 077c cabd
00000130: 8a5d 4e3b b0ee 40bd dedc 183e 2629 16bd
00000140: cf98 0e3e cc29 bd3c 5196 29be 1bf7 eabc
00000150: e0dd 183d b026 40bd b132 d23c 4ea6 08be
00000160: fa9b 2bbe b1e2 813c d3e2 873c d3ce 21be
00000170: 1473 f63d 57d6 62bc 9fac 0b3e e662 a23e
00000180: 6896 9fbd f030 103d a63b 37bd c1f2 643c
00000190: 0fdf 0dbe f3e4 00be e87b de3c 4ba3 2a3d
000001a0: ec1c bbbd 6e1d 0abd 7021 b73d f49e 9a3c
000001b0: 4832 efbd f430 d83d afdd c2bd 3225 0d3e
000001c0: 8767 603d d89c e03d 27d4 013d 9db5 1eba
000001d0: 89f6 85be 2db2 fabd 00ea 6ebd a6b7 e3bd
000001e0: 0a73 01be f4f6 a03d b54d f6bd 5290 58be
000001f0: ca06 69bc b82b 00bc 9a63 4bbc 81b4 3abe
00000200: 5b8d b23d ab9b d13c 66d8 313e fad3 18be
00000210: b72c 12be b955 1bbc 1b7b ccbd 6094 633e
00000220: 2397 42be 7228 94bd 428d 333e 2618 383d
00000230: 0e71 13be 3ae6 eabb ddc4 d2bd 7670 51bc
00000240: 3667 48be 7f7a 013e 4cd5 ec39 377a b9bc
00000250: d6c6 0d3e 9675 843c 8e5e 01bd be9c 9abc
00000260: 9cf6 aabd c44f 573d bec2 193d 95e2 babd
00000270: a664 77be efac 88be 7369 293c 92d1 573d
00000280: f366 383e 4ace 1cbc 34d9 28be 8cd9 8c3d
00000290: 30e0 aabc 6d0b 393e 5ff6 213c db0c 30be
000002a0: a43e 59bc a8e3 3b3e d303 4bbd 5ba9 15be
000002b0: b52c acbb b0c6 1e3e ad60 57bd b1e5 d13d
000002c0: 3d85 8fbd 089e f1bc 753e 563d 66b6 37be
000002d0: 7bee 12be b3ea 533e 3470 0abc 058b 5f3d
000002e0: 9d0b 87bd eba4 b63d 9a60 5fbd d64e 64bd
000002f0: 07fc 05bc 0731 edbd 33cb 1dbd 55b2 d4bd
00000300: a12b 4d3d 21b2 0f3e 4575 3d3d ed3a 02bd
00000310: f8bc 173e bc87 ecbb d1f3 623e aabd 1abd
00000320: 0c6d 47bd 6660 bb3a 26ce 053d 5ad7 a43d
00000330: 8d10 87b9 74bb c2bd daf9 3a3c 162d 9c3d
00000340: f4f0 a3bd fdc8 75bd d2f8 333e e013 253c
00000350: 6d56 56bd 448b 3a3d 1081 1d3c e9c6 21be
00000360: 31d8 613d 07ba 85bd c6da 9b3d 1041 5f3e
00000370: ccdf 883d 0b2a 343e dcfb 1d3b e11b 603d
00000380: dd71 423e d6cb 9abd d688 a4bd 18fa 99bd
00000390: ed73 2d3e 0ef5 5cbd 9911 dcbc f098 2a3e
000003a0: 8575 e1bd df41 4abd ca76 85bd 5762 debd
000003b0: f5b2 1a3e 4045 0ebd 2cc5 acbc fb3e 093e
000003c0: 3731 543d 094f 35be 4460 483e 3df3 633d
000003d0: 810d 52bd 7866 953d ca12 373e 0bf4 fc3d
000003e0: 4e12 d7bb 3c1f 0dbd 37b1 4fbc c090 15be
000003f0: 8d63 063e 6fdc 74bd ab3c 64bd ce86 3bbe
